…
2024-08-01 11:42:02 INFO     dataset: yelp
2024-08-01 11:42:02 INFO     user number: 30431
2024-08-01 11:42:02 INFO     item number: 20034
2024-08-01 11:42:02 INFO     average seq length: 10.3958
2024-08-01 11:42:02 INFO     density: 0.0005 sparsity: 0.9995
2024-08-01 11:42:02 INFO     data after augmentation:
2024-08-01 11:42:02 INFO     train samples: 225061	eval samples: 30431	test samples: 30431
2024-08-01 11:42:02 INFO     [1] Model Architecture ------------------------
2024-08-01 11:42:02 INFO     total parameters: 2967680
2024-08-01 11:42:02 INFO     ACURec(
  (cross_entropy): CrossEntropyLoss()
  (item_embedding): Embedding(20035, 128, padding_idx=0)
  (position_embedding): Embedding(50, 128)
  (input_layer_norm): LayerNorm((128,), eps=1e-12, elementwise_affine=True)
  (input_dropout): Dropout(p=0.5, inplace=False)
  (trm_encoder): Transformer(
    (encoder_layers): ModuleList(
      (0-1): 2 x EncoderLayer(
        (attn_layer_norm): LayerNorm((128,), eps=1e-12, elementwise_affine=True)
        (pff_layer_norm): LayerNorm((128,), eps=1e-12, elementwise_affine=True)
        (self_attention): MultiHeadAttentionLayer(
          (fc_q): Linear(in_features=128, out_features=128, bias=True)
          (fc_k): Linear(in_features=128, out_features=128, bias=True)
          (fc_v): Linear(in_features=128, out_features=128, bias=True)
          (attn_dropout): Dropout(p=0.5, inplace=False)
          (fc_o): Linear(in_features=128, out_features=128, bias=True)
        )
        (pff): PointWiseFeedForwardLayer(
          (fc1): Linear(in_features=128, out_features=512, bias=True)
          (fc2): Linear(in_features=512, out_features=128, bias=True)
        )
        (hidden_dropout): Dropout(p=0.5, inplace=False)
        (pff_out_drop): Dropout(p=0.5, inplace=False)
      )
    )
  )
  (nce_with_neg): InfoNCEWithExtraNeg(
    (criterion): CrossEntropyLoss()
  )
)
2024-08-01 11:42:02 INFO     Start training...
2024-08-01 11:42:42 INFO     ----------------------------------------------------Epoch 1----------------------------------------------------
…
